GTNP_Borehole_Dataset/Cleaned/model_full.pth (torch, 22630 bytes, 5 tensors)

weight f4 [64, 5]
000000 76 76 61 3e e4 f0 36 3b 07 07 b7 3d a6 b5 a6 bd
       0.22017846 0.0027914578 0.08936887 -0.081401154
000010 c5 86 38 3f 6e 8b db 3c d8 7e 86 be 85 92 65 bf
       0.7208064 0.026799884 -0.2626865 -0.89676696
000020 e7 7e 8f 3e 23 b4 9b 3f 75 98 89 3f 54 96 5e b8
       0.28026506 1.2164348 1.0749651 -5.306893e-05
000030 61 2b f8 bd 11 e8 8a 3d 0c 45 a6 3f 2a 4a 52 bf
       -0.12117649 0.067825444 1.2989821 -0.82144415
000040 f8 b4 4d 3c 5c ca 5e 3c 6e 03 8c 3c 4b d0 e7 bf
       0.012555353 0.013598051 0.01709148 -1.8110441
000050 d4 51 b5 3e 09 8b 28 3d 0a d8 f1 bd b5 e3 e1 be
       0.35413992 0.04114822 -0.11808784 -0.4411904
000060 57 8e bd be 8e 11 1d bf d9 e2 b5 bf 56 6e 82 3f
       -0.3702266 -0.6135491 -1.4209853 1.0189922
000070 34 46 18 3e 43 31 23 3f f6 02 bd be 51 58 cb 3b
       0.1487053 0.6374704 -0.36916322 0.0062055965
000080 06 70 2b 3e 70 d1 50 3c 15 35 2d 3f f1 76 65 bf
       0.16741952 0.012745246 0.6765912 -0.89634615
000090 d0 51 45 ba d4 84 c6 bd d8 0c c8 3e 36 34 22 bf
       -0.00075271446 -0.09693304 0.390723 -0.6336092
0000a0 59 8a 8e be 5a 7b 20 3f a1 1a 24 3f 3c ea 46 be
       -0.27839926 0.6268822 0.6410313 -0.19425291
0000b0 47 1d e7 be 7b 6a be be 1d 0c a9 3e 30 6c 41 bf
       -0.45139524 -0.37190613 0.33017054 -0.75555706
0000c0 fe 45 35 3e 97 25 a9 be 9c 66 bd be 3c 97 99 3d
       0.17702481 -0.3303649 -0.36992347 0.07499549
0000d0 e3 bd f9 bd 05 b1 6d bf 9b 19 e8 be c9 8e a2 3d
       -0.12194421 -0.92848235 -0.45332035 0.0793739
0000e0 1e 23 51 bf 8f fd 31 3f 3e 09 0d be cf 06 e2 3e
       -0.8169421 0.69527525 -0.13773057 0.4414582
0000f0 4d 1f 91 be 56 c1 fb 3b 98 c6 40 3e 0c 65 2b 3f
       -0.28344193 0.0076829595 0.18825758 0.6695106
000100 0c f5 1a 3d 03 bc eb bd 68 a9 ad 3c df a7 bc 3b
       0.03783135 -0.1151047 0.021198943 0.0057573165
000110 56 40 ea bb 31 d4 fe be 44 12 10 be 79 fe 53 3d
       -0.0071487827 -0.49771264 -0.14069468 0.051756356
000120 55 63 74 bf 29 2e a1 3d 16 12 5e bf 4b c0 43 bc
       -0.9546407 0.078701325 -0.86746347 -0.011947702
000130 55 7c 06 bf 9c 1f 1c 3e a5 f7 10 be d3 7d 0e bf
       -0.52533466 0.15246433 -0.14156969 -0.5566074
000140 b8 6c 4f bf 52 76 02 3d 65 e9 82 3d 14 67 0e 3e
       -0.81025267 0.03185112 0.06392173 0.13906509
000150 1a a7 59 bf e8 d8 0a 3f 73 5a ce 3e cd 88 6f 3f
       -0.850206 0.5423722 0.40303382 0.93568116
000160 cc 4c d1 be b5 69 64 bf d6 ff 30 3b e4 03 0d bb
       -0.40878904 -0.89223796 0.002700796 -0.0021517212
000170 30 dc 14 bb f6 7e 24 3a 0f 6c 80 bf b4 e4 da 3c
       -0.002271425 0.0006275022 -1.0032977 0.026720382
000180 12 4f 02 3d 25 8f af 3e 84 86 57 be 98 20 26 bf
       0.03181369 0.34288898 -0.21047407 -0.64893484
000190 df 8e 8b 3e bb 2a ed bd b3 bb 07 bf a2 97 2a 3e
       0.2725744 -0.11580416 -0.5302078 0.16659406
0001a0 98 ef b5 3f 4f 58 df be e1 2c 44 bb ea 91 e9 39
       1.4213743 -0.43622062 -0.0029933976 0.00044549938
0001b0 66 c8 9f ba e6 07 31 bf b5 78 87 be 24 c7 45 3c
       -0.0012190461 -0.6915268 -0.2645928 0.012071405
0001c0 34 06 b0 3c 38 05 6f 3c de 65 fd bf f4 d1 4a be
       0.021487333 0.014588647 -1.9796712 -0.19806653
0001d0 53 65 75 3d 12 48 06 bf 1a e9 55 bd 16 e4 21 3f
       0.059911083 -0.5245372 -0.052224256 0.63238657
0001e0 fc 5e d1 3d 13 3b 67 3d 34 18 0a bf d3 44 8c 3e
       0.10223195 0.056452822 -0.5394318 0.2739626
0001f0 ae d1 2b bf d3 eb 8e 3e 28 6b e3 bd 7c 43 12 3c
       -0.6711682 0.27914295 -0.11104423 0.008927222
000200 d9 0a 46 3e 9f fc 63 be 7c 91 a4 be 4c 9d 7b bb
       0.19340076 -0.22264336 -0.32142246 -0.0038393317
000210 26 59 26 3a 4d 52 57 bb 0e bb 10 bf 8c 94 3e 3e
       0.00063456816 -0.0032855452 -0.5653542 0.18611354
000220 53 24 bd 3d fa 19 08 3d d5 b0 af be 58 03 67 3e
       0.09235444 0.0332279 -0.343146 0.2255987
000230 94 93 5a 3f 46 a6 6c bc ad 0c 6d 3c 1f b0 1d bd
       0.85381436 -0.01444394 0.014468354 -0.03849804
000240 cf 7a ec 3f fb 79 be be 41 2a b0 be cd 18 19 bd
       1.8474978 -0.3720244 -0.34407237 -0.037377167
000250 a5 5d 02 3e 4c ea 0d bc 18 7a 14 bf 41 d0 8d bd
       0.12731035 -0.008661818 -0.579988 -0.06924487
000260 13 94 52 bd 4d 88 8b be 64 55 cd 3f b1 b0 43 3e
       -0.051410746 -0.27252427 1.6041684 0.19110371
000270 d1 93 d4 bd f2 60 31 bd 4e 49 cf 3e 2a ec ab be
       -0.10379756 -0.043305345 0.40485615 -0.33578616
000280 ee 31 68 bd 8c 16 0b bc dd 87 17 bc ee ef 98 bc
       -0.05668824 -0.008489262 -0.009248701 -0.018669095
000290 c9 b4 ff 3f 71 0a 4a 3e c2 55 95 3d 4d a6 07 bc
       1.9977046 0.19730546 0.07291748 -0.008279395
0002a0 a4 0e 92 3d 9d fb 4d 3f 87 f9 91 3e a8 dd 02 be
       0.07131699 0.80462056 0.28510687 -0.12779868
0002b0 c1 3e 07 bc 58 68 96 3d 9d 16 2e bf 6c 2b 8f be
       -0.008254708 0.07344121 -0.68003255 -0.27962816
0002c0 33 6c 9e bb 4e cc e0 3a 80 3a 11 bc 70 78 63 bf
       -0.0048346757 0.0017150731 -0.008864045 -0.8885565
0002d0 fb 12 02 3f 6f 05 c1 bc 90 db 24 bd 2b 26 cb 3b
       0.5081021 -0.023562161 -0.040248454 0.0061996183
0002e0 28 6a e4 3f 0c 61 18 3d e5 8b b8 bc 3f 20 0b bf
       1.7844896 0.037201926 -0.022527644 -0.5434608
0002f0 4a ff 85 bd 17 bc 01 be aa e9 6d be 47 ea 56 bd
       -0.06542833 -0.12669407 -0.23233667 -0.052469518
000300 0f dd 27 3f 7d b7 2b bc e6 40 3a 3f ba 4c d6 bd
       0.65571684 -0.010480759 0.7275528 -0.10463853
000310 e6 46 02 3d e9 66 b4 be aa fe 80 3e fb 3d 47 be
       0.031805895 -0.35234764 0.25194293 -0.19457237
000320 f7 ad a4 bd 57 e2 44 bc 32 37 9d bc e5 08 ce bb
       -0.08040994 -0.012016854 -0.019191358 -0.0062876814
000330 de b2 d3 3f 8a a4 dd 3e f4 18 78 3e f0 fa bd 3e
       1.6538961 0.43289596 0.24228269 0.37105513
000340 2f 86 45 3b 39 04 9a bf 60 b1 33 3d 0d 9f f1 3c
       0.0030139794 -1.2032539 0.04387033 0.029494787
000350 29 f2 d0 3e 12 42 90 bc 5b 88 a7 bf 60 c5 3d bd
       0.40809754 -0.01760963 -1.3088487 -0.04633081
000360 7e 4d 2a 3d 55 c3 b4 be 27 c4 59 3d 2c 0b bd be
       0.04157781 -0.35305277 0.05316558 -0.36922586
000370 97 07 4b bf 88 9d a0 be 55 00 5e 3f 12 61 12 bf
       -0.79308456 -0.31370187 0.86719257 -0.5717937
000380 fb 59 a6 3f b9 fb cc be c9 6d 21 be 2d 56 7f 3f
       1.299621 -0.400358 -0.15764536 0.9974087
000390 e3 01 e3 bd 58 d6 32 3e 0d b9 e0 3a f5 d8 d7 bd
       -0.11084344 0.17464578 0.0017144993 -0.10539428
0003a0 70 aa 1e bd c6 d3 bf 3e c7 93 9c be 05 5b 92 be
       -0.03873676 0.37466258 -0.30581495 -0.28585067
0003b0 11 c8 cb 3c d2 38 52 3d 87 17 53 bc c7 7a df bf
       0.024875673 0.05132372 -0.012884027 -1.7459344
0003c0 d0 95 96 be 92 60 30 3f 49 54 6f 3e b4 98 1e 3e
       -0.29411173 0.68897355 0.23371996 0.15487939
0003d0 28 63 bf be 5d 2a fd 3c c4 99 3b 3c 6c cd c4 3c
       -0.37380338 0.03090399 0.011450235 0.024023734
0003e0 b3 96 49 be 34 df 84 3f 0b f1 38 3f 47 7f a8 bc
       -0.19686393 1.0380616 0.722428 -0.020568503
0003f0 ba bb db 3d 83 21 7e bc 3e c8 30 3d e2 ea f2 3e
       0.107291654 -0.0155109195 0.043159716 0.47444826

bias f4 [64]
000000 76 89 36 3e de 50 bb 3e 39 fd 3d 3d c6 cc 96 be
       0.17825875 0.36585134 0.04638407 -0.29453105
000010 39 c9 03 3f de a4 94 bd 55 fc 79 3e 0a 5e 2c 3b
       0.51478916 -0.072580084 0.24412663 0.002630117
000020 26 b4 17 be 5b 9f 98 be 44 ce 3a 3e 3f f8 a4 3e
       -0.14814815 -0.2980908 0.18242747 0.32220647
000030 71 a2 59 3e 61 8b cd be 1d f9 53 3d 88 93 9e be
       0.21253373 -0.401454 0.051751245 -0.30971932
000040 b4 ae c5 3d ce b7 e7 bd 4d 6d e9 bd 4e b8 f2 be
       0.096524626 -0.11314355 -0.113978006 -0.47406238
000050 ba 4b af 3e da cb 1e be b8 f4 5e 3c af f0 4c be
       0.34237462 -0.1550745 0.01360815 -0.20013689
000060 49 d8 8b 3e 70 a9 ba be f8 c9 3b be a2 85 5f 3e
       0.2731345 -0.36457396 -0.18338764 0.2182832
000070 a9 52 c8 3e 92 9f f1 be 7b 01 59 3e 85 34 cb be
       0.39125565 -0.47192055 0.21191971 -0.39688507
000080 07 23 8a 3f a6 f6 a1 3e 90 59 00 be f5 9f 8c be
       1.079194 0.3163349 -0.12534165 -0.27465788
000090 ec 8d 01 bd 69 a0 81 ba 6a 70 81 be 3b c0 0a be
       -0.031629488 -0.0009889725 -0.25281078 -0.13549893
0000a0 b9 b8 ad 3e a6 c0 f1 3d 44 8c b1 bd c2 65 86 3d
       0.33929995 0.11804323 -0.08669332 0.065623775
0000b0 7e 4f 3d bd 4c 4f 42 bd a3 92 73 be 46 59 c2 bd
       -0.046218388 -0.047438905 -0.23786406 -0.09489684
0000c0 e4 18 53 be a5 c8 b4 3e ec 3d 97 3e 68 97 ab 3d
       -0.20614964 0.3530933 0.2953943 0.08378488
0000d0 88 52 f4 bd 11 6d d2 be 2c 84 01 bd b7 3e 87 3d
       -0.11929804 -0.41098836 -0.03162019 0.06603759
0000e0 8d de 6e be f6 90 80 bf 68 28 57 bd 2b 90 12 3f
       -0.23327084 -1.0044239 -0.05252877 0.5725123
0000f0 79 60 f8 bd be 9a 6a 3e 8e 75 5e 3c c9 6d 8f 3e
       -0.12127776 0.22910592 0.013577832 0.28013447

weight f4 [64, 64]
000000 44 eb b4 bd 93 f1 a1 bd 05 93 ce bb 89 fc 9b bd
       -0.08833936 -0.07907405 -0.006304147 -0.07616527
000010 84 73 66 3d 86 ca a0 bd d1 97 01 be 3d 32 66 3d
       0.056262508 -0.07851128 -0.1265557 0.056200255
000020 5d cb cc bd 6b d1 30 bd f7 b0 05 bd a7 c3 04 be
       -0.09999726 -0.043168467 -0.03263947 -0.1296526
000030 f0 ae ce 3c f8 60 99 bd 12 9d 9a bd 1f 33 79 bc
       0.025229901 -0.074891984 -0.0754949 -0.015209942
000040 80 41 0a be bf 5d 9d bc 6d 3d 15 bd d7 18 ba 3d
       -0.13501549 -0.01920974 -0.036435533 0.09086769
000050 5e b4 d2 bd 2a ef 50 3d 99 26 8a bd f7 33 bd 3d
       -0.102883086 0.051009335 -0.06745643 0.09238427
000060 4c f2 f0 3c f9 99 6b bd 27 42 09 3e 79 31 93 3d
       0.029412411 -0.057519887 0.13404141 0.071871705
000070 f8 49 92 3c d8 35 95 bd a5 6b 24 be da 58 d8 bc
       0.017857537 -0.072856605 -0.16056688 -0.026409555
000080 d6 03 1a bf 86 ec bc bd be cd a0 3d 4a d0 0d 3d
       -0.60162103 -0.09224801 0.07851742 0.034622468
000090 cb 1c f6 bd 16 d4 35 be 7e f6 e0 bc 25 03 7a bd
       -0.120172106 -0.17756686 -0.027461287 -0.061038155
0000a0 53 51 63 3e 2a 07 53 bd 15 c8 da 3d a2 42 e2 3c
       0.22198991 -0.051520504 0.10682694 0.027619664
0000b0 f7 97 c6 bd 98 18 6a 3d a1 e4 00 3e 7c 2e cc 3d
       -0.09696954 0.05715236 0.12587215 0.09969804
0000c0 4b 53 de bd 53 68 88 bc 70 f5 02 be d9 eb bf 3c
       -0.108557306 -0.016651308 -0.1278894 0.02342789
0000d0 59 99 e8 bd 3c 90 5a bd ff de 89 bd 66 01 b2 3a
       -0.11357374 -0.05336021 -0.06731986 0.0013580739
0000e0 d4 9b 96 bc 25 18 90 be 38 c9 68 ba c6 59 00 be
       -0.018384852 -0.2814342 -0.00088800816 -0.12534246
0000f0 25 a3 8e 3d a0 eb 1c bd 54 ea 46 bd 2a f9 f9 bd
       0.06964711 -0.038310647 -0.048563316 -0.122057274
000100 1b b0 51 be fb 34 4b be 95 ed cd be bb 83 16 be
       -0.20477335 -0.19844429 -0.40220323 -0.14698689
000110 3b e2 67 bd 36 84 14 3d dd 07 94 be 07 c4 91 3e
       -0.056612235 0.0362589 -0.2891225 0.2846987
000120 96 de 4c 3e 53 74 eb 3c ff 5d f6 bd b7 8a 16 3d
       0.20006785 0.028741991 -0.12029647 0.036753383
000130 74 92 0f 3e 87 7a 3c 3e b4 f8 20 be 8a 06 97 bc
       0.14020711 0.18406115 -0.15719873 -0.018435735
000140 7f 30 35 be 74 f1 6a 3d b0 bf d4 3d f8 ff 2c 3e
       -0.17694281 0.057359174 0.10388124 0.1689452
000150 50 f1 af 3c a5 84 7e 3e 9c 4b 3e be b1 81 90 3d
       0.021477371 0.24855287 -0.1858353 0.07055987
000160 28 37 a6 bd 8d 4b a8 bc 28 99 3e 3e a5 d5 f5 3a
       -0.08115989 -0.020543838 0.18613112 0.0018755688
000170 7d e3 49 3e 19 52 82 3c 10 4c 95 3c 6d da b6 3d
       0.19715686 0.015908288 0.018224746 0.0892838
000180 e8 93 a7 be 29 82 38 be 61 13 ad 3c e1 6e 96 3e
       -0.3273003 -0.18018402 0.021127405 0.2938147
000190 93 8e c0 bd f6 94 b5 bd e3 27 52 3e 2b 83 8c 3c
       -0.09402194 -0.08866303 0.20523028 0.01715239
0001a0 48 b6 b0 3e e1 ee 2c 3e 89 29 52 3e 0a 8b 2a 3e
       0.3451407 0.16888 0.20523657 0.16654602
0001b0 29 3f a8 bd a6 70 dd bd 14 1c 7f 3d 31 9b dd 3c
       -0.08215172 -0.108125016 0.062282637 0.02705154
0001c0 36 e2 45 3e df 21 30 bd 9c de 20 be 9e 86 b2 3a
       0.19324574 -0.043001052 -0.15709919 0.0013620441
0001d0 21 03 23 3e 77 76 6f 3d 82 a8 25 3d 85 ff 81 3d
       0.15919162 0.058462586 0.040443905 0.063475646
0001e0 23 1e 1c bf 33 f2 2a be 64 e0 26 3e 40 49 a5 3d
       -0.60983485 -0.16693954 0.16296536 0.08070612
0001f0 8d 66 b8 3d 37 7b fa bd 96 b3 8f bd 6d a7 6a bd
       0.09003935 -0.122305326 -0.07016675 -0.057288576
000200 73 44 57 ba 12 94 f6 3d 08 82 bc 3e 60 e4 81 3d
       -0.0008211799 0.12039961 0.36817956 0.06342387
000210 b1 3c 97 3d c2 63 29 bd 93 32 3a 3e 74 29 a7 bc
       0.07384623 -0.041354902 0.18183355 -0.020405509
000220 b3 73 81 bd 13 af 71 bd 1c 69 94 3c 54 cf be 3d
       -0.06320896 -0.059004854 0.018116526 0.093168885
000230 bb 32 03 be 10 33 63 bd ec a3 89 3d a9 83 86 ba
       -0.12812321 -0.05546862 0.06720719 -0.0010262626
000240 0a a1 35 3e 18 69 23 3d 52 74 bd 3a a1 bb 44 be
       0.17737213 0.039895147 0.0014454222 -0.192122
000250 64 92 97 3d 36 86 2c 3d 01 e4 90 3d e4 99 e6 bd
       0.07400969 0.04212018 0.07074738 -0.11259821
000260 24 eb 2d 3e a8 b1 86 bc db 7f f0 bd de 22 2a 3d
       0.1698423 -0.016442135 -0.117431365 0.04153716
000270 80 96 89 bd 02 47 9d bd 91 2d 70 bd 19 1f a9 bd
       -0.06718159 -0.07679559 -0.058637206 -0.082578845
000280 80 b8 6c 3e 50 3e e5 3d c0 16 9c bd 53 ad e3 bd
       0.23117256 0.11193526 -0.07621527 -0.11117043
000290 24 54 a8 bd 35 4a 68 3e 0e bd 20 be e1 fe 2d be
       -0.082191736 0.22684558 -0.15697119 -0.1699176
0002a0 4a a3 15 be b3 27 87 3d 9a e1 5d bc 25 f4 70 bd
       -0.14613071 0.06599369 -0.013542557 -0.058826584
0002b0 bc de ce bc e3 26 2e bb 71 b0 c7 3b ab 66 a3 bd
       -0.025252692 -0.0026573471 0.0060940315 -0.07978567
0002c0 24 30 05 3d 20 db 90 3c ea 63 39 3e 84 f1 c0 3d
       0.032516614 0.017682612 0.1810452 0.094210654
0002d0 9d 06 d2 3c 3d 3d c5 bd 4e 02 bf 3c 1a 7b 79 bc
       0.02563792 -0.09630821 0.023316529 -0.015227104
0002e0 04 84 98 3e d1 48 e9 3d b1 85 c2 bd 1b da dc bc
       0.2978822 0.11390842 -0.09498156 -0.02695947
0002f0 a4 b6 cd bd 39 6b ab bd 82 6d ad 3d 31 e5 0e 3e
       -0.100446016 -0.083700605 0.084681526 0.13954617
000300 51 a6 40 bd bd b5 dd 3d ff 68 a0 3e 5f b2 21 3e
       -0.04703361 0.108256795 0.31330106 0.157907
000310 38 fe 3a 3d 8b 13 46 bd f6 09 b1 3d a8 9d f8 bd
       0.0456526 -0.04835848 0.08644478 -0.121394455
000320 3f 3f 33 ba 20 6b 25 3d 75 9d 88 bc 51 51 02 3e
       -0.00068377325 0.040385365 -0.016676644 0.12726332
000330 62 bd 54 bd 58 41 24 be 15 b4 00 3e 55 a7 a8 bd
       -0.051938422 -0.16040552 0.12568696 -0.08235041
000340 c7 ed 4b 3e 6b 51 22 be 06 00 35 be 0c b1 46 bc
       0.19914924 -0.15851371 -0.1767579 -0.012127172
000350 82 60 20 3e dd 27 45 bd b5 6d 15 3e 55 85 fc 3c
       0.15661815 -0.04813372 0.14592631 0.030825296
000360 f7 88 33 3e ea a6 46 3d e0 1c b9 bc 62 ed fb 3d
       0.17532717 0.048499025 -0.022596776 0.123011366
000370 99 f9 04 be b3 2f d9 bd 46 69 30 3e 57 bd 07 bc
       -0.12985839 -0.10604801 0.17227659 -0.008284888
000380 61 b4 80 3e d6 82 cf 3c 25 23 58 bd 03 6a 10 be
       0.25137618 0.025330942 -0.05276789 -0.1410294
000390 16 35 24 3e 01 ed 9b 3d 76 44 bd bd 8c f7 69 3c
       0.16035876 0.07613564 -0.092415735 0.014280211
0003a0 92 e4 85 be f3 51 84 bd 1b b9 f1 bc 36 44 a0 3d
       -0.26150948 -0.06460943 -0.02950721 0.0782551
0003b0 06 3c 17 3e ed b0 20 3e d5 df 07 3b 1e ea 11 be
       0.14768991 0.15692492 0.002073278 -0.14249465
0003c0 cd d4 c7 bd c3 cd 04 3e d1 8b 22 3e 2d 11 19 3e
       -0.097573854 0.12969117 0.15873648 0.14947958
0003d0 26 23 a3 3d 82 fd e7 bd 56 dd b0 bd f3 ec a2 3d
       0.079656884 -0.1132765 -0.086359665 0.07955351
0003e0 bf a6 5c 3e 19 1d 09 3d cf 42 47 3d 85 1b 10 be
       0.21547984 0.033475015 0.048647698 -0.14072998
0003f0 0f 03 ac 3c ee 8b 38 bd c2 db 73 3b ed c5 1e 3e
       0.020997552 -0.045055322 0.0037209843 0.1550519

bias f4 [64]
000000 f3 33 e2 3c 62 ab 0a bc 38 6c 26 3e f1 48 ab 3d
       0.027612662 -0.008463712 0.1625222 0.08363522
000010 79 63 a3 bd 3a 3c 50 bd 10 d0 49 bc 6d 75 17 be
       -0.07977957 -0.050838687 -0.012317672 -0.14790888
000020 a2 dc 66 bd f0 db ab 3d 21 a4 37 bc 1f 76 70 bd
       -0.056362756 0.08391559 -0.011208565 -0.0587064
000030 2a c6 e3 ba a2 e9 11 be 9e 52 0f 3e 84 40 ca bd
       -0.0017377783 -0.1424928 0.1399636 -0.09875587
000040 b7 7a ab 3d 76 a4 b1 3d c8 1b 98 3c 12 86 6b bd
       0.083730154 0.086739466 0.018567935 -0.057500906
000050 93 95 d5 3d ea 96 9b bd 7f 9a 4c bd e3 60 03 3e
       0.1042892 -0.07597144 -0.049952026 0.12829928
000060 1c fc 11 3e 9a fb 1d be aa 56 62 3d a8 66 98 3d
       0.14256328 -0.1542801 0.05525843 0.07441455
000070 be 1b bb 3d b3 6f 3e bd fa 66 db bd bd e9 62 bd
       0.09136151 -0.046493243 -0.107130006 -0.05539869
000080 8a 2b 9f 3b 36 5f 03 be d9 ec 12 3e c4 e6 6b bc
       0.004857485 -0.12829289 0.14348163 -0.0143982805
000090 63 9f b0 3d 5f b3 57 bd 37 9c 81 bd 83 08 a4 3d
       0.086241506 -0.052661296 -0.06328624 0.08009436
0000a0 2c 8f f4 bd 28 2b da bc 27 9d a1 bd b0 8a 2c 3d
       -0.1194137 -0.026631907 -0.078913026 0.04212445
0000b0 fc 91 10 be 06 32 d2 3d 5b 2d 18 3d 42 4e 7b bc
       -0.14118189 0.102634475 0.03715263 -0.015338482
0000c0 f8 d8 da bd 07 33 e1 bd 83 2d a9 3d 50 27 df 3c
       -0.10685915 -0.10996061 0.08260634 0.027240425
0000d0 aa 18 ad bd 95 81 e5 3d 73 96 74 bd 4d 7e 51 bd
       -0.0845197 0.112063564 -0.059713792 -0.05114584
0000e0 79 49 3d 3e d0 01 1a 3e d6 b5 1b 3d 35 b0 3b 3d
       0.18485059 0.15039754 0.03801521 0.04582234
0000f0 50 da 9f 3d 62 a9 99 3d 25 57 e7 3d 66 a0 dc 3d
       0.07805312 0.0750301 0.112959184 0.10772781

weight f4 [1, 64]
000000 a4 86 81 3e 98 5f 7b 3e a0 63 81 be 6c 09 5e be
       0.25298035 0.24548185 -0.2527132 -0.21683282
000010 91 0f a3 be 29 7b 7c 3e 85 82 ca 3e 66 31 4f 3e
       -0.31847814 0.24656357 0.39552703 0.20233688
000020 e8 94 8e 3e 1b 44 3c be ad be 10 be 67 74 30 be
       0.2784798 -0.18385355 -0.14135237 -0.17231904
000030 f7 62 b0 3e 25 4c 8f 3e 35 65 92 be b0 b8 5f 3e
       0.34450504 0.2798778 -0.2859284 0.21847796
000040 0f 72 8d be b6 24 86 be 90 71 72 be 62 a2 57 3e
       -0.27626082 -0.26199883 -0.23676133 0.21058038
000050 70 15 8f be 9d 7b 76 be 84 ed 98 be 3c 3c 61 be
       -0.27946043 -0.24070592 -0.2986871 -0.21995634
000060 64 0d 7f be f4 3b 02 bf c2 4a 80 3e 9d 54 73 3e
       -0.24907452 -0.5087273 0.25057036 0.23762746
000070 34 77 9c be b6 0a b2 be e8 cd 80 be 7e 2b c0 3e
       -0.30559695 -0.34773797 -0.25157094 0.37533182
000080 91 54 a0 3e 53 09 57 3e 98 57 25 be 96 f0 58 3e
       0.3131452 0.2099965 -0.16146696 0.21185526
000090 40 57 a9 3e 85 e3 45 be 2b 25 51 be 53 77 69 be
       0.3307438 -0.19325073 -0.20424335 -0.22799425
0000a0 1b e6 ab 3e be 26 4f 3e 9f 02 33 be 9b e0 71 be
       0.33573994 0.20229623 -0.17481469 -0.23620836
0000b0 a0 64 65 3e 32 1e 89 be 7f 76 2e be 83 cf b0 be
       0.22401667 -0.2678085 -0.1703739 -0.3453332
0000c0 3b ee 6e be 34 e6 73 3e df c8 65 be cc d9 94 be
       -0.23333065 0.23818284 -0.22439907 -0.29072416
0000d0 19 7e 4e 3e 16 4c a4 be 62 e6 70 be da b9 b2 3e
       0.2016529 -0.320893 -0.23525384 0.34907418
0000e0 82 66 42 be 11 a3 8b be 7e ed 0e 3e 05 36 96 be
       -0.18984416 -0.27272847 0.13957784 -0.2933809
0000f0 6b 66 aa 3e 35 da a7 be a5 ad 35 3e a2 ec 90 be
       0.33281264 -0.32783666 0.17742021 -0.28305537
